rul_dl_model.pth (torch, 55550 bytes, 9 tensors)

lstm.weight_ih_l0 f4 [128, 1]
000000 b8 e1 c7 3d 17 90 22 bd c0 4e 0b 3e e3 78 6c 3d
       0.09759849 -0.039688196 0.1360426 0.057732474
000010 f5 61 58 bd b7 22 44 bd 02 d0 c1 bc c6 5e 41 3e
       -0.052827794 -0.04788467 -0.023658756 0.1888381
000020 5c 28 67 bd 56 aa 7e bd ff 3c f6 3c 08 8a 4c 3e
       -0.056434974 -0.062174164 0.030058382 0.1997453
000030 90 c0 d5 bd 96 90 ce 3d c3 e4 1e 3e 47 21 e0 bd
       -0.10437119 0.10086171 0.15516953 -0.10943847
000040 cb b7 1e 3c f0 cd 02 be 91 8e 2d bd 3c fb 1e 3d
       0.009687374 -0.12773871 -0.04237229 0.038813815
000050 04 26 84 3d 19 67 9c 3d 05 97 3f 3e 69 06 56 3c
       0.064525634 0.07636852 0.18709953 0.013063052
000060 ea 27 3f 3e b6 c7 00 3e b6 9a 17 3d c7 29 ad 3c
       0.1866757 0.12576184 0.03701278 0.021138085
000070 68 82 36 3e 69 e8 a0 bd c8 00 b3 3c f8 7d b1 3d
       0.17823184 -0.07856829 0.021850958 0.08666605
000080 de bb 0e 3e 20 8d 23 bb 46 33 08 3e aa a8 fb 3b
       0.13938853 -0.0024955943 0.1330081 0.0076800184
000090 4e 63 4c 3e 53 58 04 bd 83 fe f2 3d 6e fb 6c 3d
       0.19959757 -0.032310795 0.118649505 0.05785697
0000a0 f7 a9 fd bd 84 6b 4b 3e e6 7d 90 bd db 1d 5b 3c
       -0.12385934 0.19865233 -0.07055263 0.013373817
0000b0 72 19 2c 3d 3a 40 52 3d 9e fe c9 bd a1 b7 f4 3d
       0.042016454 0.051330782 -0.098630175 0.11949087
0000c0 5e d2 a6 3d 75 71 b9 bd ef 16 f2 bd b0 04 90 bd
       0.08145593 -0.09054843 -0.118207805 -0.07032144
0000d0 ec b6 bb bd 5b 0b 3d 3d 02 22 b2 3b 81 b8 d5 3d
       -0.09165749 0.046153408 0.005436183 0.10435582
0000e0 b4 1c 07 bd ae 80 0e 3e 5c 9a 09 3e 58 d7 e1 bd
       -0.032986358 0.13916275 0.1343779 -0.11027402
0000f0 79 38 dd bd 04 1c c3 bd ef d4 3a 3d c6 6e 9c 3d
       -0.10801787 -0.09526828 0.045613226 0.07638316
000100 8e 66 a2 bc aa ca 31 3e 3e bc 87 bd 27 c8 32 be
       -0.019824293 0.17362466 -0.06627701 -0.17459165
000110 e0 56 04 be 26 ce 5c 3e ee 34 f2 bd 79 6f 14 bc
       -0.12923765 0.21563014 -0.11826502 -0.00905978
000120 7e 01 26 3e 3a 08 0d 3e 25 aa 3a be 32 06 77 bd
       0.16211507 0.1377267 -0.18228967 -0.060308643
000130 3c c4 94 3d d1 6c ae bd be 25 8f 3d 2e 37 3c 3d
       0.07263991 -0.08516849 0.069896206 0.04595106
000140 9e 34 4a 3e 34 a0 0e be 7f b2 31 3e 59 f0 37 3e
       0.19746634 -0.139283 0.17353247 0.17962779
000150 83 61 12 3e 09 e2 23 3e ec c3 1a bd 69 e6 2d 3e
       0.1429501 0.16004194 -0.037784502 0.16982426
000160 83 30 3e be 0f 20 bd bd df 73 92 3d f5 9f 4e be
       -0.18573193 -0.0923463 0.07151007 -0.20178206
000170 cc 94 43 3e 3c d6 f6 bd 93 7e 64 3d 9b a9 38 3e
       0.1909973 -0.12052581 0.055784773 0.1803345
000180 9d 86 72 bd 4a 0d 21 3e ef a8 4e 3e 14 06 d0 3d
       -0.05921041 0.15727726 0.2018163 0.10157409
000190 49 d3 4c 3d 01 08 e0 3d 65 70 b9 3c 32 65 51 bd
       0.050006185 0.109390266 0.022636602 -0.051121898
0001a0 f6 e6 2c 3e e8 c5 db bd 61 b1 19 3e 5d 5e 40 bd
       0.1688498 -0.10731107 0.15009071 -0.04696499
0001b0 70 2d 07 be 37 4f ce bc ef 35 8d bd fd 68 a6 3d
       -0.13200927 -0.025184257 -0.06895053 0.08125494
0001c0 22 68 24 3c 53 7c db 3d b2 6f 14 3e db bc de bd
       0.010034593 0.10717072 0.14495733 -0.10875865
0001d0 9a ab 1b 3d ed cf a5 bc 94 fc e0 bc 36 e2 59 3c
       0.03800545 -0.020240748 -0.027464189 0.013298562
0001e0 36 e1 af bd 95 b4 8f 3d 43 5d 14 3e 6e 50 3f 3e
       -0.085878775 0.07016865 0.14488702 0.18683025
0001f0 a1 b5 8b bd 4e b4 3f 3e 0e 28 00 bd 90 86 ec 3d
       -0.06821752 0.18721125 -0.0312882 0.11549103

lstm.weight_hh_l0 f4 [128, 32]
000000 f7 a9 20 bd 49 5d 9a bd 7f f8 69 bc ab ae 9b bd
       -0.03922459 -0.07537324 -0.0142804375 -0.07601675
000010 6e 32 00 bd 1c 95 0f 3e 63 ce 12 3e 53 9d ab 3d
       -0.031298093 0.14021724 0.14336543 0.083796166
000020 e3 1c 42 3e d4 27 2a 3e 98 d1 d8 bd d7 49 1e be
       0.18956332 0.16616756 -0.10586852 -0.15457855
000030 dc 0c 2e 3e bd 33 2d 3c 36 55 62 be d6 77 4f bd
       0.16997093 0.010571417 -0.22102818 -0.050651394
000040 e5 30 b8 3d 72 29 25 bd e5 db 5e 3c 98 0c 1f 3d
       0.08993701 -0.04032273 0.013602232 0.03883037
000050 5b 32 1d 3e 44 72 2a 3e e3 e6 0e be 66 03 0f bd
       0.1535124 0.16645151 -0.13955264 -0.03491535
000060 78 87 b9 3c 3a 42 5f 3d 86 0c 0f be b0 d4 d7 3c
       0.022647604 0.054506518 -0.13969621 0.026346534
000070 d1 da 84 bd 7c a7 0d 3e c2 8a 11 3e 09 02 93 bd
       -0.064870484 0.13833421 0.14213088 -0.071781226
000080 a4 67 06 be f2 26 f1 3c 52 53 1b be 9b 43 b7 3d
       -0.13125473 0.029437516 -0.15168503 0.089484416
000090 26 26 07 3e 2d d8 11 3e 65 c2 93 3d ef 20 02 3e
       0.13198146 0.14242621 0.07214812 0.12707876
0000a0 68 32 47 3e 3a 56 cc bd 37 42 95 bd bd d9 1c bd
       0.19452822 -0.09977384 -0.0728802 -0.03829359
0000b0 da 95 2e 3e a9 f5 d3 3d af 3d 13 3e 92 57 c8 3b
       0.17049351 0.1034959 0.14378999 0.006113955
0000c0 0a fe 3b b9 db 63 99 bd 4b 22 19 3e 4e 7d a3 3d
       -0.00017928347 -0.07489749 0.14954488 0.07982884
0000d0 1c ed e3 3c 6c 71 ea 3d 57 85 13 3d 76 47 7a 3d
       0.027823023 0.11447415 0.036015835 0.061103307
0000e0 68 bb cd bc f5 f8 43 be cb 5a 4e 3e 38 0f 2b be
       -0.025113776 -0.19137938 0.20151822 -0.16705024
0000f0 85 33 49 3e 94 9c 7f 3d b2 25 c8 3c c5 4c 27 3e
       0.1964856 0.062405184 0.024432037 0.16337879
000100 da 05 f1 3d d7 6c 9f 3c c9 2d 39 be 87 d4 f0 3d
       0.11768694 0.019461079 -0.18083872 0.117592864
000110 1d bb e1 3c 5b f2 33 3e 47 ee 58 bc 9d a6 d4 bb
       0.027555043 0.1757292 -0.0132404035 -0.0064895884
000120 de 22 49 3e bb 48 4e bd d1 6e 61 bc 19 c0 d5 3d
       0.19642207 -0.05036233 -0.013759331 0.1043703
000130 d4 af b0 bc da 20 54 3d 5a 87 1d be 47 76 9e 3d
       -0.021568216 0.051789142 -0.15383664 0.07737403
000140 b5 e0 ac 3d ae f7 01 3e a0 cf fd 3d 3c 72 69 3c
       0.08441297 0.12692139 0.12393117 0.014248427
000150 1f 67 39 3d da 3d a9 3d 15 db 6e bd 6a e6 05 bd
       0.04526436 0.082637504 -0.0583144 -0.032690443
000160 18 6b f9 3d 55 6f 02 3e 02 20 7a bd df b5 4d 3c
       0.1217863 0.12737782 -0.06106568 0.0125555685
000170 06 0d 1a 3e 2f 6a af 3d c8 34 39 3e f6 e9 92 3d
       0.1504403 0.08565175 0.1808654 0.07173531
000180 fa 11 1c be 14 d8 04 be 3e 6e 33 3d 3c 85 02 3d
       -0.15241233 -0.12973052 0.043806307 0.031865343
000190 1e 8d b0 3c ec e9 09 bd 7e b4 f6 bb 7f 1b 2b be
       0.021551665 -0.03367035 -0.0075288406 -0.16709708
0001a0 ff aa 10 3e 08 60 54 3e 5e 91 9e 3d a5 70 25 be
       0.1412773 0.20739758 0.0774257 -0.16156252
0001b0 f5 a7 4e 3e 3f ad 7c 3c 49 b3 3b be 84 2e 54 bd
       0.20181258 0.015422164 -0.1833011 -0.051802173
0001c0 29 e9 84 bd 9e 58 ac bd a8 c6 0d 3b c7 5c 58 bd
       -0.06489784 -0.0841534 0.00216333 -0.052822854
0001d0 07 1b db bd a8 ec 1b 3d b7 0b ae 3d 35 92 62 3e
       -0.106985144 0.03806749 0.08498328 0.22126086
0001e0 38 13 e0 bd f7 45 47 be 84 8c 32 3e 6b 5a 59 be
       -0.10941166 -0.19460283 0.17436415 -0.21225898
0001f0 72 ad 40 3e 90 00 15 3c 3d f2 1a bd 22 9e e1 3d
       0.18816164 0.009094372 -0.037828673 0.110164896
000200 77 e7 30 3c 4a a1 93 bb 68 fd 42 3d e6 f9 a1 bd
       0.010797373 -0.004505311 0.04760495 -0.079089925
000210 bb ac dc 3d a4 06 e5 bc 97 ce 6a 3d 61 59 31 3c
       0.10775133 -0.027957268 0.057325926 0.010824532
000220 70 6b 02 bc f5 7a fe bd 33 7f a0 3c 98 f2 e0 3d
       -0.007960185 -0.12425796 0.019591903 0.10983771
000230 87 6d 5a 3e cd 63 ef bd 41 c1 05 be ea 9a 16 3e
       0.21330844 -0.11688957 -0.13062002 0.14707533
000240 cb e8 f5 bd da cf c0 bc db ba 56 3d 5c aa c4 bc
       -0.12007292 -0.023536611 0.052424293 -0.024007015
000250 5f 77 f4 3d 79 8e 93 bd b9 30 85 bd 37 5d 85 3d
       0.11936831 -0.07204909 -0.06503434 0.0651192
000260 00 f6 e8 bd 55 22 be bd 5c 41 ae 3d 76 89 ed 3d
       -0.11375046 -0.09283892 0.0850856 0.11598484
000270 11 45 11 3e 5e 77 80 bd 3b ab 9a bc 2c f7 40 3e
       0.14186503 -0.062727675 -0.018880477 0.18844289
000280 1e fa 09 be 72 98 19 3d 7c 4a 21 be 62 17 6a bd
       -0.13474318 0.0374989 -0.1575107 -0.057151206
000290 58 e0 c8 3c 92 9a 60 3e 95 69 cc bc 44 4c c2 bd
       0.024521038 0.21933964 -0.02495269 -0.09487203
0002a0 80 6d f2 bd ea 9c 08 3e 8b 52 46 bc 12 5d c8 bc
       -0.11837292 0.13341108 -0.012104641 -0.024458442
0002b0 db cc 12 3c 29 33 3f be cf 43 8d bd e0 63 5a 3e
       0.008959974 -0.1867186 -0.06897699 0.21327162
0002c0 c4 8e 19 3d f6 17 44 3b 48 b3 de bd e2 98 37 3e
       0.037489668 0.0029921508 -0.10874039 0.17929414
0002d0 2f c6 ad bd 19 5d 1d bd 2f fd ac 3d a8 ab dd bd
       -0.08485066 -0.038418863 0.084467284 -0.108237565
0002e0 23 40 fd 3d fc d4 51 bd 90 74 c7 bd 73 bf c1 3d
       0.12365749 -0.05122851 -0.097390294 0.09460344
0002f0 0b 27 13 3e 3c 08 ae bd 69 8e 9f bd fa 3e 49 3e
       0.14370362 -0.08497664 -0.077908345 0.1965293
000300 6d 37 64 3c ec 09 f5 3d c6 d1 6c bd 73 c4 19 3d
       0.01392923 0.11964783 -0.057817243 0.037540864
000310 9a c2 13 be 26 2a 03 be 4d 63 4e ba 49 78 01 be
       -0.14429703 -0.12809047 -0.00078730733 -0.12643541
000320 01 6d 33 3e 53 d4 0a 3e 09 a1 04 3e 50 de 88 bd
       0.1752205 0.13557558 0.12952055 -0.06683028
000330 f1 9d 47 3e b7 cd 62 3b d8 71 8f bd 24 44 aa bd
       0.19493844 0.003460748 -0.07004136 -0.08313778
000340 c2 10 ee bd 7a a0 a2 3d a9 e0 25 3e 50 46 8a 3d
       -0.1162429 0.07940765 0.16198982 0.06751692
000350 36 6c 03 bd 3d f5 bc 3c 1a 9c db bd 53 65 c7 bd
       -0.03208562 0.023066157 -0.107231334 -0.09736123
000360 0c 92 ab 3d e3 15 34 be 58 a1 ba bd ce 74 67 3d
       0.083774656 -0.17586474 -0.09112805 0.056507878
000370 09 1d bd bd ca 56 6f 3d b1 db 34 3e 3a 3c 1e bc
       -0.09234054 0.058432378 0.1766193 -0.009657914
000380 eb d1 c0 3d 3e 7d 12 be 9c f8 be bd e3 19 12 be
       0.09415039 -0.14305589 -0.09324762 -0.14267687
000390 38 f9 d5 bd 60 c3 5d bd 41 2c d4 bd 7b 8b 24 be
       -0.10447925 -0.054141402 -0.10360003 -0.16068833
0003a0 a6 5b 37 3e 54 d4 85 bb b6 b0 d7 3c 92 a4 0d be
       0.17906055 -0.0040841494 0.02632938 -0.1383231
0003b0 79 e3 23 3e f2 4c 7c bd 34 ae 14 be fc 21 dd bd
       0.16004743 -0.06159682 -0.14519578 -0.10797498
0003c0 47 80 28 3e d9 49 0c 3e fa 53 02 3e 81 bc 28 bc
       0.16455184 0.13700046 0.12727347 -0.010298849
0003d0 48 62 98 3d ad 19 d0 bb 43 9c d6 3d 52 e2 87 bb
       0.07440621 -0.006350717 0.10479023 -0.0041468525
0003e0 76 be 71 3d 75 fd 9a 3d c7 6c 13 3e a1 50 40 be
       0.05901953 0.07567874 0.14396964 -0.18780757
0003f0 4a 1b 6b bc 40 b1 28 bd 50 db 51 3e 5f 87 72 bc
       -0.014349768 -0.041184664 0.20493817 -0.014802783

lstm.bias_ih_l0 f4 [128]
000000 86 dd 3a bd 35 f5 ff 3c d7 0c 94 3d c5 3c 52 bd
       -0.045621417 0.031244854 0.072290115 -0.051327486
000010 41 e2 c5 3d d1 9a a8 3d 66 16 eb 3d a5 ab f7 bc
       0.09662295 0.08232654 0.114788815 -0.030233214
000020 3f 50 0a 3e e0 f0 b7 3d d9 8d 3e 3e 81 71 82 3c
       0.13507174 0.0898149 0.18608798 0.015923264
000030 74 70 e6 3c 7c 76 55 3e 56 6e 88 3c 37 fc f1 bd
       0.028129794 0.2084598 0.016654175 -0.11815684
000040 39 fe f2 3d e8 f6 86 bd f9 2d 6b 3d 95 5c 88 bc
       0.118648954 -0.065900624 0.05741689 -0.016645709
000050 54 4f 34 3e 78 f9 8a bd 2a 74 2c 3e 4b fc d6 3c
       0.17608386 -0.06785864 0.16841188 0.02624335
000060 ea 41 5a 3e ea 9b 2c 3e 33 ce 9b bd 39 de d0 bd
       0.21314207 0.16856351 -0.07607689 -0.101986356
000070 09 52 d2 3d de 4a eb 3d 00 f8 d3 bd b4 fa 34 3d
       0.10269553 0.11488889 -0.103500366 0.0441844
000080 65 d9 80 bd 4b 32 1e 3e 79 02 be 3c bf 90 3b 3a
       -0.06291465 0.15448873 0.023194538 0.0007155053
000090 ce b6 98 bd 7f e0 df 3d 35 d1 40 3e 05 41 34 3b
       -0.07456742 0.10931491 0.18829806 0.0027504575
0000a0 01 54 9d 3d ec f6 01 3e 7b 71 ab bc e0 df 02 3c
       0.07682038 0.1269185 -0.020928135 0.007987946
0000b0 73 ab 3f 3c 63 03 37 3e aa 22 72 bd ad 40 55 3e
       0.0116985915 0.17872386 -0.05911509 0.20825453
0000c0 ca 5d 56 3e 9b 9b 86 3d 0f 47 3c 3e 8c fd d6 3d
       0.20934215 0.06572648 0.18386482 0.10497579
0000d0 31 43 0d 3d bf 67 65 bc 4f 08 3e 3e 74 55 0b 3d
       0.034487907 -0.014001786 0.18557857 0.03401704
0000e0 52 24 e5 bd a8 6a 4d 3d 8b 4b 64 3e e1 91 27 3e
       -0.11188568 0.050150543 0.22294442 0.16364242
0000f0 a0 4c 9c bc 26 fc 53 bd 50 82 f5 3d 84 ea fe 3c
       -0.019079506 -0.05175414 0.11987746 0.031117685
000100 fb 2b 05 3d 62 e2 a0 3d 04 fc 49 bd f2 80 57 be
       0.032512646 0.07855679 -0.049312606 -0.21045282
000110 e2 b0 e3 3c 0e 2a 8a bd 1c 15 33 3d c9 0e d8 bd
       0.027794305 -0.067463025 0.043721303 -0.10549695
000120 40 46 41 37 cb 6d 23 3e 62 59 2d be 3b 6e 3e be
       1.1520053e-05 0.15959851 -0.16928628 -0.18596737
000130 b1 ca 20 be 66 03 3d bd 23 e8 44 bd 49 c6 e5 b9
       -0.1570232 -0.04614582 -0.048072945 -0.00043826018
000140 15 cf 34 3d da 31 1c be 71 40 f0 bd 05 72 5c bd
       0.0441428 -0.15253392 -0.11731041 -0.053819675
000150 45 89 85 bd 36 54 03 3e 85 f0 1b bd cf f4 b1 3c
       -0.06520323 0.12825093 -0.038071174 0.02172318
000160 8d 72 8e 3d 4a c0 72 bd 53 34 d4 3b d8 f4 c8 3c
       0.069554426 -0.059265412 0.006475964 0.024530813
000170 a8 49 1a bd 0e 94 2e be e5 2f 87 bd 9d 44 a9 bd
       -0.0376679 -0.17048666 -0.06600932 -0.0826504
000180 ee 12 e7 bd e8 80 cf bd b3 8b 24 bd 46 1b 0e 3e
       -0.112829074 -0.10132009 -0.04017229 0.13877591
000190 26 1a c7 bd 7f 0a ef 3d 92 c3 82 bd af e8 c8 bd
       -0.09721784 0.11671924 -0.06384958 -0.09810006
0001a0 e6 7f 02 3e db bc 7b bd 8d d7 c7 3c 5c 5d 15 bd
       0.12744102 -0.061459403 0.024394775 -0.036465988
0001b0 b7 75 35 3e 9c a4 53 3e ea a8 ad 3d f0 bc aa bd
       0.17720686 0.20668262 0.084794834 -0.08336818
0001c0 a8 b0 02 3e 53 e0 46 3e e7 9b 14 3c cd 9f c6 3d
       0.12762702 0.1942151 0.009070373 0.09698448
0001d0 5f 3c 78 bd aa b2 33 be ad 3d e3 bd f0 0d f2 bd
       -0.06060445 -0.17548624 -0.11095748 -0.118190646
0001e0 53 7b f3 bc a9 2d 09 3e ba ab 62 3e 44 67 32 3e
       -0.029721892 0.13396324 0.22135821 0.17422205
0001f0 3d d0 04 3e 4f fb 80 bd b7 34 6e bc 45 71 df 3d
       0.12970062 -0.06297933 -0.014538935 0.10910276

lstm.bias_hh_l0 f4 [128]
000000 43 6e f9 bd 42 26 58 3e ff 69 57 bd 7b 10 96 bd
       -0.12179234 0.21108344 -0.05259132 -0.07327362
000010 88 36 89 bb 1f 1b fe 3d 0d 34 12 3e e6 b4 53 3d
       -0.004187409 0.12407517 0.14277668 0.05168619
000020 7d fe 34 3e c4 56 04 3d 60 dc 9c 3c 11 a1 0c be
       0.17675205 0.03230931 0.019148052 -0.13733317
000030 d0 3c 58 bd d4 af 3b 3d 99 6b 15 3e 08 0b f4 bd
       -0.05279237 0.04582198 0.14591826 -0.119161665
000040 db 6b e0 bd af dc 39 bd 80 1c 38 bc 08 ae cf bd
       -0.10958072 -0.045376476 -0.011237264 -0.10140616
000050 01 82 b5 bd e5 79 3b 3c e4 8b 11 3e 78 95 51 3e
       -0.08862687 0.011442636 0.1421352 0.20467174
000060 2a 29 84 bd 29 15 91 bd 77 6b 85 bd 7e 1e f4 3d
       -0.06453164 -0.07084114 -0.06514638 0.119198784
000070 28 b2 4c 3e 94 bf 8a bd a2 4f 75 bd 78 fc 17 3e
       0.19989836 -0.06774822 -0.059890397 0.14842403
000080 2a 74 00 be 88 38 8b bd 79 66 38 bd c0 e8 a8 3d
       -0.12544313 -0.06797892 -0.0450196 0.082475185
000090 9e dc a6 3d 45 d2 31 3c 84 df af 3d 27 64 61 3d
       0.08147548 0.010853355 0.08587554 0.055027153
0000a0 61 55 2d 3e 5c 6f ea 3d 9a 40 a2 bd dd 2a 2f 3d
       0.169271 0.11447021 -0.07922478 0.042765487
0000b0 0d 71 02 be 22 d3 cc bd ae 87 0d 3e 2e dc 3d bc
       -0.12738438 -0.10001208 0.13821289 -0.011588139
0000c0 1e da 0a 3e 61 a7 95 3d 19 3b 35 3e 4e 21 35 3e
       0.13559768 0.073073156 0.17698325 0.17688486
0000d0 66 6f 89 3b 34 15 38 3b 47 c1 14 3d d8 a0 24 3e
       0.004194188 0.002808881 0.036317136 0.16076982
0000e0 d8 40 28 bd 5d a9 c1 3d 05 cd 83 3d 15 64 18 3e
       -0.041077465 0.094561316 0.06435589 0.14881928
0000f0 b4 32 33 3e 46 c5 93 3d d2 d5 38 3d 0e 7c c6 3d
       0.1749981 0.07215361 0.04512579 0.0969163
000100 40 c6 c0 3d 3b ab a3 bc 50 7a 2f 3d 99 34 ee bc
       0.09412813 -0.01997911 0.042841256 -0.029077815
000110 5d 24 d1 3d 1a 7c 32 3d bc 49 05 bd 1d bd 08 be
       0.10212014 0.043575384 -0.03254102 -0.13353391
000120 8d 57 ea bd 4e 32 c6 3d e7 4f b0 3d 21 85 4a be
       -0.1144248 0.096775636 0.0860899 -0.19777347
000130 2c c9 0b be 2a e4 d2 bd 7c 8a 1e be 20 9c f6 3d
       -0.1365096 -0.10297425 -0.15482515 0.12041497
000140 04 24 05 3e ea 57 0d be d4 32 ff 3d 8e 17 23 bc
       0.1300202 -0.13803068 0.124608666 -0.009954346
000150 d1 8f f7 3d 06 0f d3 3d db 3c 33 be 72 0e 06 3d
       0.12087978 0.103056 -0.17503683 0.03272862
000160 15 84 54 bd 4f 63 3d be e7 f9 2b 3e 13 b8 b9 3c
       -0.051883776 -0.18494914 0.16794549 0.022670781
000170 54 6b 0d bd ca fd 5d be 03 2f 4f 3e 7b 40 1f 3d
       -0.034526184 -0.21678844 0.20232777 0.038879853
000180 0a 52 2c 3e df 39 3f 3e a5 21 b7 bd 28 5c 19 3e
       0.1682817 0.1867442 -0.08941964 0.14976561
000190 06 0b da 3d 49 8d b4 3b 03 e1 d2 bd 2b 0a 19 3c
       0.10646634 0.0055100066 -0.10296824 0.009340803
0001a0 21 78 31 3e dd c7 c9 bd b1 54 00 3e f4 ec 6e 3d
       0.17330982 -0.09852574 0.12532307 0.058331445
0001b0 05 fa 04 3e 6c dd 4d 3e 6c 85 c2 bd dc ee 19 3c
       0.12986 0.20103997 -0.094981045 0.009395327
0001c0 32 17 00 3e 38 81 d6 3d 9c 26 d3 bd eb eb 81 bd
       0.12508848 0.10473865 -0.103100985 -0.06343826
0001d0 b6 f5 8b 3b 9a e3 11 3d 83 3a e8 3d 11 03 04 3e
       0.0042712344 0.03561745 0.11339285 0.12891795
0001e0 24 49 3c 3e 83 45 3a 3c 57 28 7b bd c1 b4 a2 3d
       0.18387276 0.011369112 -0.061317768 0.07944632
0001f0 df f9 cc 3d 2a 0b 59 3d b6 c4 01 3e c4 c5 0f 3e
       0.10008597 0.052989163 0.12672696 0.14040285

lstm.weight_ih_l1 f4 [128, 32]
000000 65 60 82 bd 87 a7 db bd 7d 2b 46 be 65 3b 19 be
       -0.06366042 -0.10725313 -0.19352527 -0.14964063
000010 3f 09 15 3d 44 48 92 3d 2d 3a a0 3d 54 d6 05 bb
       0.03638577 0.0714269 0.07823596 -0.002042194
000020 4d 54 0f 3e e0 07 e0 3d 2d 67 33 be 0c 03 13 be
       0.13997002 0.10939002 -0.17519827 -0.14356631
000030 c0 58 dc bd 60 e2 d8 bd 7b fb 01 3e 6a 0e 08 be
       -0.10759115 -0.105900526 0.12693588 -0.13286749
000040 3a 59 1d be 33 1c 08 bd e9 10 0c be 55 03 55 3d
       -0.15366068 -0.033230018 -0.13678326 0.05200513
000050 3b ff 17 be 24 da 45 3e 71 72 17 be 34 39 f3 3d
       -0.14843456 0.19321495 -0.1478975 0.11876145
000060 46 2a 24 be cb 07 f6 bd 7a 1c d9 bd 5e 6f 22 3d
       -0.16031751 -0.12013205 -0.106011346 0.03965699
000070 8b 74 44 3d fa e5 b3 ba 56 8c 8e bd af cf 1e 3d
       0.047962707 -0.0013725155 -0.06960361 0.03877228
000080 9f 99 7e 3d 39 f9 f8 3c 31 72 09 3e fb 46 40 be
       0.062158223 0.030392276 0.13422467 -0.18777077
000090 9d 9b 22 be 64 31 01 be ac 17 0d be 31 11 e2 bd
       -0.15879674 -0.12616497 -0.13778561 -0.11038435
0000a0 63 ff b2 3c 3c 6c 88 bc c9 88 99 bd 3e 71 93 bd
       0.021850294 -0.016653173 -0.07496793 -0.071993336
0000b0 dc 14 23 bd 3e f1 fd bd eb c6 f2 bd 0d a8 e1 bc
       -0.039814815 -0.12399529 -0.11854347 -0.027545953
0000c0 ba de 25 3d 8a be 13 3d 43 73 cd 3d 78 f0 07 3e
       0.04049561 0.036070384 0.1003175 0.13275325
0000d0 0d 1d 8d bc f9 b2 a1 bd a9 c2 af bd 03 8b 30 3e
       -0.017225767 -0.078954645 -0.0858205 0.17240529
0000e0 29 4b fa 3c b7 34 df bd db 07 9f bd ef 97 61 3c
       0.030553417 -0.108987264 -0.0776517 0.013769134
0000f0 a9 54 06 3e df 86 50 be 45 f2 d6 bc 97 05 b7 3c
       0.13118233 -0.20363949 -0.02623857 0.022341533
000100 fe 3b 6e 3d 7d 5c 4e 3e 0c fe bb 3d d4 e9 ba 3b
       0.05816268 0.20152469 0.09179315 0.005704144
000110 7b 22 08 be e6 34 e1 bd 0b 95 9c 3d c2 4a de 3d
       -0.13294403 -0.10996418 0.07645615 0.10854103
000120 e7 31 8d 3d 87 ba 15 3e 32 4e 9d 3d 7d 02 39 be
       0.06894284 0.14621936 0.0768093 -0.18067355
000130 74 d9 62 3d d7 c1 32 be fd 38 32 be 90 c2 e6 3c
       0.05538316 -0.17456757 -0.17404552 0.028168947
000140 f4 5d 0b 3e c0 66 e9 bd 39 93 9c 3c 74 e3 d5 bd
       0.13610059 -0.11396551 0.01911317 -0.10443774
000150 29 c5 8a 3c 19 7c 31 3e 05 70 8d bd df 16 d7 3c
       0.016939716 0.17332496 -0.06906132 0.026256023
000160 5d f6 06 be 29 43 07 3b ca 4e 4a bd a9 0f da bd
       -0.13179918 0.0020639396 -0.049391545 -0.10647518
000170 b1 06 99 3d f1 cb ff 3d 8b 48 42 bd 81 c2 f9 bd
       0.074719794 0.124900706 -0.047432464 -0.12195302
000180 f9 75 52 3d da ee ec 3d 5b 0c 20 be 10 03 65 be
       0.05138204 0.11568995 -0.15629713 -0.2236445
000190 60 58 c1 3d f0 0e fc 3d 9c 66 5f be 6b 8b f2 3d
       0.09440684 0.123075366 -0.21816486 0.11842998
0001a0 2d 50 00 3e 99 e9 aa bd 3c 88 7a 3c 6a 9b d9 3c
       0.12530585 -0.083453365 0.01529127 0.026563365
0001b0 68 2f e9 3c 1a c0 9d bd 75 37 15 3d 8e 1b 58 3e
       0.028464988 -0.07702656 0.03642984 0.21104261
0001c0 66 82 fc bc a1 52 ae 3d 01 8c 50 3d b8 a2 24 3d
       -0.030823898 0.08511854 0.050914768 0.040194243
0001d0 cc 4f 3d 3e 7c 3e 08 3e 63 39 0a bd 5b 2b 68 3c
       0.18487471 0.13305086 -0.033746134 0.014170493
0001e0 15 6b cc 3d 92 73 a0 bd a6 17 2f 3e 0f 78 94 3d
       0.09981362 -0.07834543 0.17098865 0.07249462
0001f0 b6 6b 1b 3d d9 b9 f1 3d ee 43 2a 3e 63 0b a4 bd
       0.037944518 0.11803026 0.16627476 -0.08009984
000200 11 f0 87 3d e5 d0 2d 3e fb d3 cd 3d 7a 57 34 be
       0.06637586 0.16974218 0.10050198 -0.17611495
000210 b0 c1 39 be 58 c4 9c bd 90 5e 22 be 61 3c ef bd
       -0.18140292 -0.07654637 -0.15856385 -0.11681438
000220 fc 02 09 bd 30 b1 59 3c 30 6c aa bd d8 67 b3 bc
       -0.03345011 0.013286874 -0.083214164 -0.021900102
000230 f1 d3 de 3d 88 e7 be 3c 3d 05 bf 3d 19 e1 7c bb
       0.10880268 0.023303762 0.09327171 -0.0038586317
000240 a6 10 80 bd cb 21 ed bd 1a 95 1f 3e 59 34 59 3d
       -0.062531754 -0.11578711 0.15584221 0.05302844
000250 13 8e ff bc 7f 0e 28 39 56 e2 dc 3d 20 1e e1 bd
       -0.031195676 0.00016027129 0.10785358 -0.10992074
000260 2d 52 18 bd 2b ca 2d bd 04 e5 cc bc 30 d2 90 bd
       -0.037187744 -0.04242913 -0.025011547 -0.0707134
000270 f0 31 28 3e 7b 48 11 bc 42 47 05 be 2b ff 4f bd
       0.164253 -0.008867378 -0.13015464 -0.050780457
000280 ca 7c 69 3d 03 7c 2f be b2 6f 48 3b c2 f6 b6 3c
       0.057003774 -0.1713715 0.0030584154 0.02233446
000290 f0 02 75 bd e6 03 aa 3c b4 a4 09 3e a0 60 9c bd
       -0.059817255 0.020753812 0.13441736 -0.07635617
0002a0 49 1c 25 be 0b 63 29 be 4c 53 96 3d 86 55 b5 3d
       -0.16124071 -0.16541688 0.07340106 0.08854203
0002b0 72 71 f1 bd 4b b0 8e 3d 7e 1c c4 bd 7e 80 cd 3d
       -0.11789216 0.06967219 -0.09575747 0.100342736
0002c0 ec 38 d2 3c c5 dc f2 bd d6 48 c7 bc e8 3d cc bd
       0.025661908 -0.11858515 -0.024326723 -0.09972745
0002d0 f5 26 7d bd 67 1a d9 bd e3 1f b7 bd 52 32 25 3e
       -0.06180473 -0.10600739 -0.08941629 0.16132477
0002e0 9e af 23 be de 84 2e be 4e 45 d4 bb 42 22 c8 3d
       -0.15984961 -0.17042872 -0.0064779883 0.09772159
0002f0 c0 ed a3 bd 50 41 60 bd 54 66 bf bd dc cc 24 be
       -0.080043316 -0.054749787 -0.093456894 -0.16093773
000300 17 41 92 3d 08 f9 22 bd 9e 61 4a 3d 42 00 56 3d
       0.07141321 -0.039788276 0.0494095 0.05224634
000310 01 e4 dc 3d 3e be e4 3d 95 bf e5 bd 15 e0 26 3b
       0.10785676 0.11169098 -0.11218182 0.0025463153
000320 f2 ed c9 bb ff a2 2c 3e fe 1d 31 bd 6f 18 9a bd
       -0.0061623985 0.16859053 -0.043241493 -0.075241916
000330 3c b6 0b bd 3c c7 fb bc d4 df 8b 3d 35 47 b5 bd
       -0.03410934 -0.03073465 0.06829801 -0.08851472
000340 a3 e6 bb 3d 8c b4 e6 bc 36 6a 42 3c a5 ee 20 3d
       0.0917485 -0.028162263 0.011866143 0.03929009
000350 fd d7 63 bd 31 eb 15 3e 43 40 0d be 4e 27 49 3d
       -0.055625904 0.146405 -0.13794045 0.04910975
000360 c7 5d 16 3e f3 a2 59 3d e5 85 29 3e 8b 31 36 3d
       0.1468421 0.053133916 0.16554983 0.04448084
000370 69 65 56 3c 4a d4 31 be 2f 94 a6 bd 2e 93 f5 3d
       0.0130857015 -0.17366138 -0.081337325 0.11990963
000380 9b 53 05 be a5 c0 aa 3d 1f f9 ef 3d d7 92 0a bd
       -0.13020174 0.08337525 0.11717438 -0.033831444
000390 25 06 84 3c 13 71 22 3e 79 4a 90 bd 66 c0 c5 3d
       0.016116211 0.15863447 -0.070454545 0.09655838
0003a0 fc 0a 7b 3c 15 28 9f 3d 67 b2 40 bd 58 09 52 ba
       0.015322443 0.07771317 -0.047045138 -0.00080122566
0003b0 31 3a 06 39 51 29 1b be bf b2 20 be 29 44 ba bd
       0.00012800914 -0.1515248 -0.15693186 -0.09095032
0003c0 02 79 3d bd c7 2d 0b 3d 54 67 43 3e 54 87 b5 3d
       -0.04625798 0.033979204 0.19082385 0.088637024
0003d0 c7 c3 4b 3e ac 14 a5 3d 4b 6a 4f bd 7b f5 28 3d
       0.19898902 0.080605835 -0.05063848 0.041249733
0003e0 c3 5e 39 be 2c 00 2b 3d ad 40 08 3c 51 08 55 be
       -0.18102555 0.04174821 0.008316201 -0.20803954
0003f0 08 d9 03 be f1 6c 7a bc eb e5 10 3e e7 24 4b 3e
       -0.1287576 -0.015284763 0.14150207 0.19838296

lstm.weight_hh_l1 f4 [128, 32]
000000 d3 c8 c8 bd c2 c5 c9 3c 88 44 25 3e d5 f8 30 3e
       -0.09803929 0.024630431 0.16139424 0.17282422
000010 e9 fc e8 bd fb dc 80 3d b4 1f 8a bd b2 4b ea bd
       -0.11376364 0.06292149 -0.06744328 -0.11440219
000020 62 1f 14 bd b0 81 c8 bd 2b 11 0e be 51 e7 ee 3d
       -0.03616274 -0.09790361 -0.13873737 0.11665214
000030 e9 21 ca 3d 71 68 94 bd db 09 d2 bd 20 28 01 be
       0.09869749 -0.07246483 -0.10255786 -0.12612963
000040 c8 4c 6f 3d 68 1a ce bc 1b 25 3b be 66 8e 19 be
       0.058422834 -0.025159076 -0.18275873 -0.14995727
000050 bf 20 ba bd 91 ea 13 bc 16 28 ea 3d 1b dd 96 bd
       -0.09088277 -0.009028093 0.11433427 -0.07366391
000060 43 4a 31 bc 93 04 23 3e 1b b2 0a be fe 9b 24 bd
       -0.010820928 0.15919714 -0.13544504 -0.04018783
000070 a1 a6 e0 bc 7f b0 8c 3d 90 cf de 3d 8e 58 0c be
       -0.027423205 0.068696015 0.10879433 -0.13705656
000080 d6 fd 98 bc db f8 88 3d 74 39 37 3e ac d2 b1 bb
       -0.018675726 0.066880904 0.1789301 -0.0054267254
000090 69 e6 29 bd 9c 85 73 bd fd ad 12 be ee 8a c5 bd
       -0.041479502 -0.05945359 -0.14324184 -0.09645639
0000a0 65 54 d5 3d ba 94 aa 3d fa e1 c2 3d 6c dc 9e bc
       0.104164876 0.083291486 0.09515758 -0.019392215
0000b0 3a 0a f5 3d f7 0b 91 3d 4a ed 6b 3d bf 74 ca 3d
       0.11964841 0.0708236 0.057599343 0.09885549
0000c0 e5 9d 5a ba 34 39 f3 3d f4 8b 2a be 3d a1 cd bd
       -0.0008339568 0.11876145 -0.1665495 -0.100405194
0000d0 a5 33 80 bd 2b c3 59 3e 7c 47 99 bd ef f0 d4 3d
       -0.062598504 0.21265857 -0.07484338 0.10397517
0000e0 0f 78 dc 3d 07 51 1f be 29 c7 23 bd 08 10 2e 3e
       0.10765087 -0.15558253 -0.039984856 0.16998303
0000f0 84 b8 36 bd f3 c6 e5 bc 44 04 26 3d fe 1f 2e 3e
       -0.04460956 -0.028048968 0.04053141 0.17004392
000100 81 eb ea bc 6f 2f 52 bd 22 e4 e3 bd ec 59 b7 3d
       -0.02867675 -0.051314767 -0.11127497 0.08952698
000110 9b 68 69 bd 0d 87 e0 bd 80 c4 20 be 9c b6 5a 3e
       -0.056984525 -0.10963259 -0.15699959 0.21358722
000120 54 d8 28 be c3 28 5d bd bf 36 b2 3d f3 7c 09 be
       -0.16488773 -0.05399395 0.08701848 -0.1342657
000130 a0 be 76 3d 16 7d 61 3e 43 aa 4a bd b6 0d 1a 3e
       0.060240388 0.22020373 -0.04947878 0.15044293
000140 a1 8e 92 bd 92 79 2b bd c1 e4 3d be 70 4c 21 3e
       -0.071561106 -0.041863985 -0.18544294 0.15751815
000150 00 cc a8 bd bd 46 cf 3c 49 ce b1 3d 26 bc a9 3d
       -0.08242035 0.025302285 0.08681924 0.082878396
000160 ab 67 f4 3d 18 f6 43 be 86 7b 5c 3e e2 c6 06 bd
       0.119338356 -0.19136846 0.21531495 -0.032904513
000170 5c a5 f9 3d d2 f8 ab bd ab 98 aa 3d 31 fa 31 3e
       0.12189743 -0.08397068 0.083299 0.17380597
000180 bf 7c 50 be f6 aa c5 bd 19 3e 57 3e 7b 51 92 3d
       -0.20360087 -0.09651749 0.21019782 0.071444474
000190 5d a3 ca 3a e6 91 19 bd f9 b0 bf 3d ff bc 8a 3b
       0.0015460063 -0.037492655 0.09359927 0.004233956
0001a0 f9 81 6b bd 90 0a 12 3e cc af 87 3d bf 9c 94 3d
       -0.057497 0.14261842 0.066253275 0.072564594
0001b0 af 44 e1 bb a0 ca ed bd 83 d6 4d be ff 32 59 3e
       -0.006874643 -0.11610913 -0.20101361 0.2121086
0001c0 4b 7e 93 bd 85 5e 86 3c 63 54 23 be 57 53 e0 3d
       -0.07201823 0.016402492 -0.1595016 0.10953396
0001d0 66 f5 57 bd cb 55 85 3d 01 2c e9 3d b1 42 3f bd
       -0.052724265 0.06510504 0.11385346 -0.04669446
0001e0 e8 79 5d bd a5 12 27 bd 55 9a fa bd ce a1 21 3e
       -0.054071337 -0.040789265 -0.12236468 0.1578438
0001f0 c5 7c 4c 3e da f1 70 3d c3 8f e3 bd f7 fe 25 3e
       0.19969471 0.058824398 -0.11111405 0.16210543
000200 0c 12 a6 3d 80 b0 06 be 29 cd 82 3d 88 8a a2 bc
       0.08108911 -0.13153267 0.063867874 -0.019841447
000210 05 54 78 3d 2e 9e b3 3d b5 d7 04 3c cf 7c 93 3d
       0.060627002 0.08770405 0.008108069 0.0720154
000220 a0 c9 eb 3d 81 82 4d bd 80 3f 4a 3d a0 31 15 be
       0.11513066 -0.050173286 0.049376965 -0.14569712
000230 82 0a 6e 3d a1 65 fc bd c8 65 2e be 83 3f 53 3e
       0.05811549 -0.12324072 -0.17031014 0.20629697
000240 c3 73 66 bd 4b 84 08 bc 3b 84 fc bc f7 b5 ab 3d
       -0.056262743 -0.008332322 -0.030824771 0.083843164
000250 de 92 a5 3d 61 9a 76 3d 14 07 ce bd 23 58 1a 3d
       0.08084653 0.06020582 -0.10059944 0.03768171
000260 01 18 0f 3e 9a a5 fe 3d 9a e1 34 3e be 84 76 3d
       0.13974 0.1243393 0.17664185 0.060185187
000270 a0 95 53 bd 5f bc b5 bd fc df bb bd 8e 86 ea bd
       -0.051656365 -0.088738196 -0.09173581 -0.114514455
000280 cd 19 1c 3e 8a f8 01 3e 62 14 2c 3b ed 30 be 3d
       0.15244217 0.12692466 0.0026257266 0.092866756
000290 68 86 8e 3c 6e 4a 4b 3e ab c2 af bd ca 3d bf bd
       0.017398074 0.19852611 -0.08582052 -0.09337957
0002a0 79 01 b5 3d ce dd 19 3e cd 18 75 bd d2 64 24 be
       0.088381715 0.15026018 -0.059838105 -0.16054085
0002b0 15 d6 b3 bd 7d 32 e4 bd 28 d9 2b 3e f1 de 62 bd
       -0.08781067 -0.111424424 0.16782057 -0.055388395
0002c0 4c 96 26 3c ea e1 76 bd 6a fd 7d 3d 19 14 16 be
       0.0101676695 -0.060274042 0.062009253 -0.14656104
0002d0 51 b6 0a 3e c4 3e b7 3d 52 52 08 be 99 36 00 be
       0.1354611 0.089475185 -0.13312653 -0.12520827
0002e0 e4 ec 33 3e 2d 5f 15 bd 27 94 1e be 8c bb 30 be
       0.17570835 -0.03646772 -0.15486203 -0.17259043
0002f0 3c 90 02 bd e6 01 53 3e 96 06 2e be 03 c5 1c 3d
       -0.031875834 0.20606193 -0.169947 0.038273823
000300 77 11 4b bd 60 a0 51 bc b0 37 1e be 10 16 33 3e
       -0.049577203 -0.012794584 -0.1545093 0.17488885
000310 1b 12 17 3e 50 d2 95 bc 35 21 98 bd 53 bc bf 3d
       0.14753 -0.018288761 -0.07428209 0.09362092
000320 c8 e5 15 3e 7a ab 50 be 73 32 c7 3d c3 6c 01 3e
       0.14638436 -0.20377913 0.09726419 0.12639146
000330 70 95 9b bd 22 41 7a bd 41 d1 16 3e ca ea c6 bd
       -0.07596862 -0.06109727 0.14728262 -0.09712751
000340 2f 5e bc bd b6 2b e4 bd d7 b3 01 bd aa 0a 32 3d
       -0.091976516 -0.1114115 -0.03166565 0.0434672
000350 ff d3 10 3d b1 fd cb 3b b4 6b 02 be 0e b8 13 be
       0.035358425 0.0062253107 -0.12736398 -0.1442568
000360 b0 8d 8b 3d fe 18 4c 3d e4 eb b3 3d 54 e8 38 bc
       0.06814134 0.049828522 0.08785227 -0.01128586
000370 fb 5d fa bd 07 ec cb 3d 2f 73 c7 bc 2a bc ad bd
       -0.122249566 0.09957128 -0.024346916 -0.08483155
000380 f9 ca 16 be 24 07 05 3e c2 c0 46 3e 43 24 8d bc
       -0.14725865 0.12991005 0.19409469 -0.017229205
000390 ec e0 cc bd c3 3d 07 be 93 f7 1c bd f8 2c 45 bd
       -0.10003838 -0.13207154 -0.038322043 -0.04813859
0003a0 e7 0f 0a be c4 1e c9 bc ae 9d 8d bd ec 1b 65 3d
       -0.13482629 -0.024550803 -0.06914841 0.05593483
0003b0 bf 61 cb 3d de d4 25 3d 4e 84 af 3d f3 05 43 3d
       0.09930753 0.04048621 0.08570157 0.047613095
0003c0 08 67 05 be 47 e5 98 3c db 2a 05 3e 6f 15 d9 3c
       -0.13027585 0.018664015 0.1300463 0.026499478
0003d0 5a df 05 be 0d 97 b1 bd 19 bd ed bd 42 2d ee 3d
       -0.13073483 -0.08671389 -0.11608333 0.11629726
0003e0 22 5d 0d 3e 77 d3 f3 3d a6 1f 22 3e b8 62 88 bd
       0.13805059 0.11905568 0.15832385 -0.06659454
0003f0 7f 61 06 be d2 09 f9 3d 4e 20 58 be 33 4b 4b 3e
       -0.1312313 0.12160076 -0.21106073 0.19852905

lstm.bias_ih_l1 f4 [128]
000000 45 89 2c bd 18 8c 2e 3e 75 d4 4d 3e dc 4c ec bd
       -0.042123098 0.17045629 0.20100577 -0.11538097
000010 ff 83 3a 3c b8 d0 2b bd 93 02 b3 3d 31 cf 18 3e
       0.011384009 -0.041947097 0.08740725 0.14922787
000020 60 8d d1 bd de 62 9d 3d 73 83 8a 3d 67 47 6a 3c
       -0.10232043 0.07684873 0.06763353 0.01429925
000030 c5 45 38 3e ff 8f 12 bc 50 4b 88 3d 4b 99 84 bc
       0.17995365 -0.008945464 0.0665499 -0.016186377
000040 09 a8 a0 bd 5f 86 bd 3d 84 c5 16 3e 2c 5f 40 3e
       -0.0784455 0.09254145 0.14723784 0.18786305
000050 23 57 bd 3b 47 82 1a bd 6f ae 45 3d cd 43 1c 3e
       0.00577821 -0.0377219 0.048262056 0.15260239
000060 61 4b cc bd 16 40 fc bd 53 01 1a 3e 70 fc f6 3c
       -0.09975315 -0.12316911 0.15039568 0.030149668
000070 4d 16 1b bd e7 ec ef 3d 58 5d 00 3e 36 2e fd bd
       -0.037863065 0.117151074 0.12535608 -0.1236233
000080 31 82 85 3c 23 6d f2 3d 8b 77 f9 3d 1a 08 8b 3d
       0.016297432 0.118372224 0.12181004 0.067886546
000090 a3 70 07 be 44 4e 3d bc bb 8b ad 3d e8 42 fa 3d
       -0.13226561 -0.0115543045 0.08473917 0.122197926
0000a0 f2 54 ab 3c e8 e4 1a 3e 2b de f1 3d 00 1d f7 3d
       0.020914529 0.15126383 0.11809953 0.12066078
0000b0 b4 51 77 bc e6 9f 9a bd ae 69 29 3e 28 35 ef bd
       -0.015095163 -0.075500295 0.1654422 -0.116800606
0000c0 44 d3 fd bb a4 dd 79 bc 59 30 37 bd f8 81 f4 3d
       -0.007746132 -0.015250597 -0.044723842 0.11938852
0000d0 b3 9f 5c 3e 66 c0 f7 bc de 28 e3 3d 8e 2d 77 3d
       0.21545295 -0.03024311 0.11091779 0.06034618
0000e0 58 69 f6 3d 82 d3 bd bc 86 33 f2 3d 19 1e 42 bd
       0.120318115 -0.023172144 0.118262336 -0.047391985
0000f0 e7 a9 f9 3d e5 a1 14 3d 40 d4 a5 bc ac cb be bd
       0.121906094 0.036287207 -0.02024281 -0.09316191
000100 bc 07 3a 3d 34 08 cb 3c d1 9f 0a 3e 4e ec 22 3e
       0.045417532 0.024784185 0.13537528 0.15910456
000110 fa 54 51 3d dc da 31 bb 40 e4 7f bb 9c 96 4e 3e
       0.05110643 -0.0027138507 -0.003904596 0.2017464
000120 55 12 c3 bd c8 77 fa 3d ca 76 00 3e 46 28 e1 bd
       -0.09524981 0.12229878 0.12545314 -0.1099401
000130 bc 84 41 bd 4b b3 90 bc 36 f2 46 be 34 9b 50 3e
       -0.047245726 -0.017663619 -0.19428334 0.20371705
000140 78 4a fb 3d 22 2b 97 bd 53 f3 7c 3c af 0e d5 bd
       0.12270063 -0.07381274 0.015438872 -0.10403191
000150 ac 41 99 3d 15 a7 f7 3d 05 0d 1a be bf 9e c3 3c
       0.07483229 0.12092415 -0.15044029 0.023879407
000160 02 46 87 bd f0 f0 0d bd 11 d9 25 3e f9 7c ba 3c
       -0.0660515 -0.034653604 0.16196086 0.02276467
000170 ec ea 4e 3e 8c bb f3 bd dc ba fc bd e0 8f 4e 3e
       0.20206803 -0.11901006 -0.12340328 0.20172071
000180 97 66 a6 bc f9 17 27 3e 68 56 86 3d cb b7 18 3e
       -0.02031259 0.16317739 0.065594494 0.14913861
000190 b3 3d 1f 3e ba f4 30 be 7b ff aa bc 74 aa f2 bd
       0.1555088 -0.17280856 -0.020873776 -0.118489176
0001a0 5d 9a 94 3c 00 51 51 3e 01 6e 04 3e fd 98 fa 3d
       0.018140012 0.20441055 0.12932588 0.122362114
0001b0 cb 17 26 bd 20 43 9e 3d f7 c3 e6 3c 03 63 23 3e
       -0.040550034 0.07727647 0.028169615 0.15955739
0001c0 ad d1 86 3c 57 ec 30 3e dc a3 e7 3d 90 d1 3f 3c
       0.016457403 0.17277656 0.113105506 0.011707678
0001d0 78 01 c0 bd aa 6a 9b 3d 4a 7c 17 3e f9 62 39 bd
       -0.0937528 0.07588704 0.14793506 -0.045260403
0001e0 20 75 15 be 8c 04 07 3d fa 68 0e 3e 96 55 1a be
       -0.14595461 0.03296332 0.13907233 -0.15071711
0001f0 e9 6a 00 bd 16 39 02 bd 45 ef 2d 3e 8a fd c3 3d
       -0.031351957 -0.031792723 0.16985805 0.09569843

lstm.bias_hh_l1 f4 [128]
000000 f7 55 27 bd df f6 ef 3d 81 ca 3f 3e 29 73 36 3e
       -0.040853467 0.11717009 0.18729593 0.17817368
000010 2c 75 db bd 57 e4 55 bd 15 00 78 bd d1 ba c2 bd
       -0.10715708 -0.052219715 -0.060546953 -0.09508289
000020 ac 80 f0 bd 6d d5 13 be e0 29 61 bd 6d f7 02 be
       -0.11743292 -0.14436884 -0.054971576 -0.12789698
000030 07 29 85 3a ad a4 c3 3d a0 04 5c bd 02 82 ef bb
       0.0010159322 0.09552894 -0.05371535 -0.0073091993
000040 8c 53 30 3e af 02 c4 bd 36 ac 8d 3d 47 dc 73 3d
       0.1721937 -0.09570824 0.06917612 0.059536245
000050 cc b1 1a 3e ce c3 45 3d 5b 1f ed bb aa d9 04 3e
       0.15106887 0.048282437 -0.007236404 0.12973657
000060 21 d5 7e bd f7 ef 34 3e 91 3b e2 3c 8f 4a 14 3d
       -0.062214974 0.17669664 0.027616294 0.036203917
000070 92 66 bc 3d 6b 2e 41 bb f5 40 30 3d d0 86 cc 3d
       0.09199251 -0.002947713 0.043030698 0.09986651
000080 82 cb 51 3c bd 14 bc 3d c4 1b 80 3d 6b b4 e1 3d
       0.012804868 0.09183643 0.06255296 0.1102074
000090 ed 35 1f 3e a7 68 f0 3d 2d c0 11 3e 9e 21 de bc
       0.15547915 0.11738711 0.14233465 -0.02711564
0000a0 57 a0 41 3d c6 ad 4f 3e c5 cb bd bd 9f 42 84 bc
       0.047272053 0.20281133 -0.092673816 -0.016145049
0000b0 74 be aa 3d 28 09 d3 bd 5a c0 d0 bd f9 79 45 3e
       0.08337107 -0.10304481 -0.10192938 0.1928481
0000c0 e8 f6 b7 3c d3 97 8e 3d e7 a3 52 3e 69 29 58 3e
       0.022456601 0.06962552 0.20570336 0.21109547
0000d0 eb c4 41 3e 7a a2 a0 bd 76 b9 23 3e 6b f9 ab 3d
       0.18922774 -0.0784349 0.15988716 0.08397182
0000e0 f8 2e 49 bd ed 51 26 3d de 60 f0 bd 76 19 08 be
       -0.04911706 0.040605474 -0.11737226 -0.13290963
0000f0 0b 16 1c bd 08 79 b7 bd 22 44 ce 3d a3 41 07 bd
       -0.03810696 -0.08958632 0.10071589 -0.03302158
000100 90 1e 1f be 6a 53 29 3e 78 04 12 bc 21 fa c8 3c
       -0.15539002 0.16535726 -0.008912198 0.024533333
000110 c9 c7 52 bd f7 d0 95 bd 8a c9 0f 3e e1 5c 89 3d
       -0.05146006 -0.073152475 0.14041725 0.06707168
000120 54 59 63 3b b1 cf 51 3d c5 0d 2e bc 19 f8 56 3d
       0.0034690695 0.05122346 -0.0106234 0.052482698
000130 9a 56 5f 3e 72 47 52 3e 8b 11 be bc cb 80 c6 bd
       0.2181038 0.20535067 -0.023201725 -0.09692534
000140 02 6c 39 3e 1f 93 e9 3d db 27 bb bb a4 cd 41 3d
       0.18107608 0.11405014 -0.0057115383 0.047315255
000150 18 db 11 bd cf 29 42 3e d7 f8 d1 3d 2d a8 0e be
       -0.035609335 0.18961261 0.102525406 -0.13931341
000160 80 74 db bd 10 ea 0f 3e a1 90 ac 3d 53 b7 a0 bd
       -0.1071558 0.14054132 0.08426023 -0.07847466
000170 e2 ae 35 3e b1 b5 55 bd 5b 2f 87 bd 94 0b 9d bd
       0.17742494 -0.052175228 -0.06600829 -0.07668224
000180 67 d9 b8 3b 55 54 80 3d 6e 55 70 bd 3c 31 3f 3c
       0.0056411508 0.06266085 -0.058675222 0.011669453
000190 53 be e5 3d 93 f9 be bd 5d 8e 3c 3d d2 c8 4b 3e
       0.11217942 -0.09324946 0.046034206 0.19900826
0001a0 40 b3 72 bd 14 ce 14 3d e4 fc 11 3e 73 7a 31 3b
       -0.059252977 0.036329344 0.14256626 0.0027081042
0001b0 ef 59 17 bd 90 0d 90 3d 5d 07 fc 3d e4 c7 26 3e
       -0.036951 0.07033837 0.12306092 0.1628719
0001c0 ce ec 90 3b 8e 7e 69 bb e1 b2 87 3c 92 17 2a 3e
       0.0044227606 -0.003562841 0.016564788 0.16610554
0001d0 cc 2c b8 bd eb f7 1d 3e ff b7 df 3d 4a e5 7a bd
       -0.08992919 0.15426604 0.10923766 -0.061253823
0001e0 ed 88 82 3d 21 4c 0d 3c e5 c0 82 3d 97 65 26 be
       0.06373773 0.008624108 0.06384448 -0.16249691
0001f0 b7 6a 34 3e be 51 11 3e 1c 2c ae bd 86 cc 4a 3d
       0.17618833 0.14191338 -0.08504507 0.049511455

fc.weight f4 [1, 32]
000000 34 31 f9 bc df dd 83 3d f6 11 6a 3e 76 c3 f5 3d
       -0.03041897 0.06438803 0.22858414 0.12000172
000010 f8 2f ea 3d ec 9d 2e 3e 8b 1a 06 be d8 09 71 3d
       0.114349306 0.1705243 -0.13096063 0.05884728
000020 29 0e 24 3e 50 35 8a bd 5f e8 36 3d 9b f2 09 be
       0.16021027 -0.0674845 0.0446552 -0.13471453
000030 da f0 96 3d 0c 4e b6 3d e0 ee 3b be 98 27 43 3e
       0.073701575 0.08901605 -0.18352842 0.19058073
000040 f9 f5 04 3e 5c c6 0c be a6 10 d7 bd 16 2a bd 3d
       0.12984456 -0.13747543 -0.10501222 0.09236543
000050 ce c7 4d be ab bb a6 3d 74 a4 b3 bd 0e 6c 50 be
       -0.2009575 0.081412636 -0.08771601 -0.2035372
000060 c0 6e 12 3e 5e 03 d8 bd 2e 39 33 3e f6 02 37 be
       0.1430006 -0.10547517 0.17502281 -0.17872223
000070 58 40 c8 3d 5a 95 ea 3d ec 42 17 be 79 9d a2 3d
       0.097778976 0.11454268 -0.14771622 0.07940192
